models/pretrained_models/lenet5_mnist.tflite (tflite, 71480 bytes, 5 tensors)

lenet/dense_1/MatMul i1 [10, 84] scale=0.0049060816 zero_point=0
000000 ed e6 32 d3 c3 ea ec d4 34 1e c4 bb ea fa 2a de
       -0.09321555 -0.12755813 0.24530408 -0.22077367 -0.299271 -0.1079338 -0.09812163 -0.2158676 0.25511625 0.14718245 -0.2943649 -0.33851963 -0.1079338 -0.02943649 0.20605543 -0.16680677
000010 19 d7 1c ef 31 b7 be c4 14 b1 ce 2c db b0 37 cb
       0.12265204 -0.20114934 0.13737029 -0.083403386 0.240398 -0.35814396 -0.3238014 -0.2943649 0.09812163 -0.38758045 -0.24530408 0.2158676 -0.18152502 -0.3924865 0.2698345 -0.2600223
000020 e3 b9 d3 02 26 fd 0b d5 3d 45 31 fb d1 48 c2 39
       -0.14227636 -0.34833178 -0.22077367 0.009812163 0.1864311 -0.014718245 0.0539669 -0.2109615 0.299271 0.33851963 0.240398 -0.024530407 -0.23058583 0.35323787 -0.30417705 0.27964666
000030 00 e8 d9 00 5a 35 9a da 4a 15 d1 d7 dd 1b da 1e
       0.0 -0.11774596 -0.19133718 0.0 0.44154733 0.2600223 -0.50042033 -0.1864311 0.36305004 0.10302772 -0.23058583 -0.20114934 -0.17171286 0.1324642 -0.1864311 0.14718245
000040 3a 2c ff 5a bf cf 0d db c4 09 71 c7 42 d9 18 e9
       0.28455272 0.2158676 -0.0049060816 0.44154733 -0.3188953 -0.240398 0.06377906 -0.18152502 -0.2943649 0.044154733 0.5543872 -0.27964666 0.3238014 -0.19133718 0.11774596 -0.11283988
000050 cd 46 ec 1e 27 cd 06 d5 df c5 3a 16 4a e8 1d 2b
       -0.25021017 0.34342572 -0.09812163 0.14718245 0.19133718 -0.25021017 0.02943649 -0.2109615 -0.1619007 -0.2894588 0.28455272 0.1079338 0.36305004 -0.11774596 0.14227636 0.2109615
000060 f6 3b e3 f4 36 d7 b9 1e cb 1c ca 29 c1 e7 f2 d7
       -0.049060814 0.2894588 -0.14227636 -0.05887298 0.2649284 -0.20114934 -0.34833178 0.14718245 -0.2600223 0.13737029 -0.2649284 0.20114934 -0.30908313 -0.12265204 -0.068685144 -0.20114934
000070 e0 16 b8 00 f0 5e e5 e2 1e d8 b6 c6 1a c7 95 c0
       -0.15699461 0.1079338 -0.35323787 0.0 -0.078497306 0.46117166 -0.1324642 -0.14718245 0.14718245 -0.19624326 -0.36305004 -0.28455272 0.12755813 -0.27964666 -0.52495074 -0.31398922
000080 0b a7 00 1e 5a ad 12 0e 1e d0 5f e4 3e e5 b9 51
       0.0539669 -0.43664128 0.0 0.14718245 0.44154733 -0.40720478 0.08830947 0.068685144 0.14718245 -0.23549192 0.46607774 -0.13737029 0.30417705 -0.1324642 -0.34833178 0.3973926
000090 20 de ed 3c 4f 27 13 2c dd 51 ba 0c 44 51 fe 1f
       0.15699461 -0.16680677 -0.09321555 0.2943649 0.38758045 0.19133718 0.09321555 0.2158676 -0.17171286 0.3973926 -0.34342572 0.05887298 0.33361354 0.3973926 -0.009812163 0.15208852
0000a0 b7 cc c3 21 61 18 e3 c3 61 d6 c4 4c e6 0b be d7
       -0.35814396 -0.25511625 -0.299271 0.1619007 0.47588992 0.11774596 -0.14227636 -0.299271 0.47588992 -0.20605543 -0.2943649 0.3728622 -0.12755813 0.0539669 -0.3238014 -0.20114934
0000b0 27 37 c0 c6 25 e3 e6 f9 43 e6 2f 28 54 1e 3e 44
       0.19133718 0.2698345 -0.31398922 -0.28455272 0.18152502 -0.14227636 -0.12755813 -0.034342572 0.32870746 -0.12755813 0.23058583 0.19624326 0.41211087 0.14718245 0.30417705 0.33361354
0000c0 e1 aa 02 03 ff 4d c7 41 cb 45 31 dc 27 c6 f9 ef
       -0.15208852 -0.421923 0.009812163 0.014718245 -0.0049060816 0.37776828 -0.27964666 0.3188953 -0.2600223 0.33851963 0.240398 -0.17661893 0.19133718 -0.28455272 -0.034342572 -0.083403386
0000d0 b0 3c be 53 fd 00 2c 41 2a 1e 39 31 c7 dd 14 41
       -0.3924865 0.2943649 -0.3238014 0.40720478 -0.014718245 0.0 0.2158676 0.3188953 0.20605543 0.14718245 0.27964666 0.240398 -0.27964666 -0.17171286 0.09812163 0.3188953
0000e0 3f c6 f4 b9 4d e8 da e9 b7 39 4a d1 1b d6 df b7
       0.30908313 -0.28455272 -0.05887298 -0.34833178 0.37776828 -0.11774596 -0.1864311 -0.11283988 -0.35814396 0.27964666 0.36305004 -0.23058583 0.1324642 -0.20605543 -0.1619007 -0.35814396
0000f0 c4 e0 1d 4b 03 0d 08 4c dd 63 51 f4 0b 42 eb 38
       -0.2943649 -0.15699461 0.14227636 0.36795613 0.014718245 0.06377906 0.039248653 0.3728622 -0.17171286 0.48570207 0.3973926 -0.05887298 0.0539669 0.3238014 -0.10302772 0.27474058

lenet/dense/MatMul i1 [84, 120] scale=0.0058702175 zero_point=0
000000 cb e3 f2 dd 4d fc e1 2d f5 e2 0d d4 de f8 02 2b
       -0.31112152 -0.1702363 -0.08218305 -0.20545761 0.45200676 -0.02348087 -0.18197674 0.2641598 -0.064572394 -0.17610653 0.076312825 -0.25828958 -0.19958739 -0.04696174 0.011740435 0.25241935
000010 f8 0d f0 04 f9 fc f2 14 f6 f3 f9 1e fe f3 19 04
       -0.04696174 0.076312825 -0.09392348 0.02348087 -0.041091524 -0.02348087 -0.08218305 0.11740435 -0.058702175 -0.076312825 -0.041091524 0.17610653 -0.011740435 -0.076312825 0.14675544 0.02348087
000020 fa 13 44 f2 16 f5 f6 c1 e6 f5 f8 ff e4 de 1f e8
       -0.035221305 0.11153413 0.39917478 -0.08218305 0.12914479 -0.064572394 -0.058702175 -0.3698237 -0.15262565 -0.064572394 -0.04696174 -0.0058702175 -0.1643661 -0.19958739 0.18197674 -0.14088522
000030 3b fe 12 f8 0b fd 27 e3 f8 ee 03 11 2c cb e9 00
       0.34634283 -0.011740435 0.10566391 -0.04696174 0.064572394 -0.017610652 0.22893848 -0.1702363 -0.04696174 -0.10566391 0.017610652 0.099793695 0.25828958 -0.31112152 -0.135015 0.0
000040 18 eb f6 ee f9 1d 10 e1 f4 07 f6 49 23 10 07 2e
       0.14088522 -0.123274565 -0.058702175 -0.10566391 -0.041091524 0.1702363 0.09392348 -0.18197674 -0.07044261 0.041091524 -0.058702175 0.42852587 0.20545761 0.09392348 0.041091524 0.27003
000050 0a f9 e9 0e eb e4 09 0e d8 1f 06 f8 11 3a f7 22
       0.058702175 -0.041091524 -0.135015 0.08218305 -0.123274565 -0.1643661 0.052831955 0.08218305 -0.2348087 0.18197674 0.035221305 -0.04696174 0.099793695 0.3404726 -0.052831955 0.19958739
000060 f1 17 f0 f9 17 30 f3 15 fe 1f 25 d7 fc 07 e4 ce
       -0.08805326 0.135015 -0.09392348 -0.041091524 0.135015 0.28177044 -0.076312825 0.123274565 -0.011740435 0.18197674 0.21719804 -0.24067892 -0.02348087 0.041091524 -0.1643661 -0.29351088
000070 15 fb 0a 15 06 0c e7 16 e5 d8 11 09 d5 0f ee 16
       0.123274565 -0.029351087 0.058702175 0.123274565 0.035221305 0.07044261 -0.14675544 0.12914479 -0.15849587 -0.2348087 0.099793695 0.052831955 -0.25241935 0.08805326 -0.10566391 0.12914479
000080 2a ca ac 18 18 24 06 07 17 25 d8 23 fa f0 ee d9
       0.24654913 -0.31699175 -0.49309826 0.14088522 0.14088522 0.21132782 0.035221305 0.041091524 0.135015 0.21719804 -0.2348087 0.20545761 -0.035221305 -0.09392348 -0.10566391 -0.22893848
000090 f0 13 e3 ed d2 ed d7 d0 1f ea dc f8 07 e0 2a 01
       -0.09392348 0.11153413 -0.1702363 -0.11153413 -0.27003 -0.11153413 -0.24067892 -0.28177044 0.18197674 -0.12914479 -0.21132782 -0.04696174 0.041091524 -0.18784696 0.24654913 0.0058702175
0000a0 0e c5 00 fe 02 15 d1 0c fc fd e9 34 18 d0 23 fb
       0.08218305 -0.34634283 0.0 -0.011740435 0.011740435 0.123274565 -0.27590021 0.07044261 -0.02348087 -0.017610652 -0.135015 0.3052513 0.14088522 -0.28177044 0.20545761 -0.029351087
0000b0 e5 dc da 1d 1d 13 15 f9 02 ee 28 20 e9 04 f4 01
       -0.15849587 -0.21132782 -0.22306827 0.1702363 0.1702363 0.11153413 0.123274565 -0.041091524 0.011740435 -0.10566391 0.2348087 0.18784696 -0.135015 0.02348087 -0.07044261 0.0058702175
0000c0 f8 35 fb de e1 0f 08 f4 2d d4 ee d7 db 05 de ed
       -0.04696174 0.31112152 -0.029351087 -0.19958739 -0.18197674 0.08805326 0.04696174 -0.07044261 0.2641598 -0.25828958 -0.10566391 -0.24067892 -0.21719804 0.029351087 -0.19958739 -0.11153413
0000d0 e5 0e f8 25 1c ed fa e0 ff f1 dc 34 12 0e df e8
       -0.15849587 0.08218305 -0.04696174 0.21719804 0.1643661 -0.11153413 -0.035221305 -0.18784696 -0.0058702175 -0.08805326 -0.21132782 0.3052513 0.10566391 0.08218305 -0.19371718 -0.14088522
0000e0 ef e4 f7 18 01 02 1d 07 ca 10 1c 09 30 d2 0d f6
       -0.099793695 -0.1643661 -0.052831955 0.14088522 0.0058702175 0.011740435 0.1702363 0.041091524 -0.31699175 0.09392348 0.1643661 0.052831955 0.28177044 -0.27003 0.076312825 -0.058702175
0000f0 3a 37 f6 f7 07 01 1d 0e 09 f6 01 02 d1 06 dc da
       0.3404726 0.32286197 -0.058702175 -0.052831955 0.041091524 0.0058702175 0.1702363 0.08218305 0.052831955 -0.058702175 0.0058702175 0.011740435 -0.27590021 0.035221305 -0.21132782 -0.22306827

lenet/sequential_2/conv2d_2/Conv2D i1 [120, 5, 5, 16]
000000 1c 15 20 fc 05 0f 04 fe 07 ea ea ea 08 fd 04 06
       28 21 32 -4 5 15 4 -2 7 -22 -22 -22 8 -3 4 6
000010 26 2a 38 ea 2d 0f ee f5 f0 ee f6 eb ee 09 0f ec
       38 42 56 -22 45 15 -18 -11 -16 -18 -10 -21 -18 9 15 -20
000020 2e 1a 6e 0d 2b fd f3 e3 28 ef 0c 0a f3 e8 03 0c
       46 26 110 13 43 -3 -13 -29 40 -17 12 10 -13 -24 3 12
000030 fb f0 19 00 0a 07 07 16 3d 04 0a 07 05 2a fa 00
       -5 -16 25 0 10 7 7 22 61 4 10 7 5 42 -6 0
000040 e9 d4 09 fb 09 f6 ee fb 20 0c f5 f0 ef 31 f3 01
       -23 -44 9 -5 9 -10 -18 -5 32 12 -11 -16 -17 49 -13 1
000050 2a 07 f4 f7 1c f0 e9 f7 b6 07 e3 fe 03 0d 11 05
       42 7 -12 -9 28 -16 -23 -9 -74 7 -29 -2 3 13 17 5
000060 11 27 f6 05 09 06 ed c9 bc f1 ee 0b 10 c4 fc f1
       17 39 -10 5 9 6 -19 -55 -68 -15 -18 11 16 -60 -4 -15
000070 32 38 6f 08 70 f3 0b e6 32 f4 f6 ec ee f7 ea 10
       50 56 111 8 112 -13 11 -26 50 -12 -10 -20 -18 -9 -22 16
000080 12 17 11 fd 22 ee 04 eb 04 08 ea 01 f2 04 02 10
       18 23 17 -3 34 -18 4 -21 4 8 -22 1 -14 4 2 16
000090 36 1a 08 eb 07 f2 f8 22 ea f2 fc 02 f0 37 fb 08
       54 26 8 -21 7 -14 -8 34 -22 -14 -4 2 -16 55 -5 8
0000a0 d6 d7 a0 f3 e4 05 f3 e8 81 f0 ec fd fc af 00 ea
       -42 -41 -96 -13 -28 5 -13 -24 -127 -16 -20 -3 -4 -81 0 -22
0000b0 b3 e3 0e 03 26 f2 ec b0 d6 01 ee fc 0b b3 04 0d
       -77 -29 14 3 38 -14 -20 -80 -42 1 -18 -4 11 -77 4 13
0000c0 39 2e 5a f2 59 e9 f5 fc 11 f2 0c fd 0c 0d f2 fb
       57 46 90 -14 89 -23 -11 -4 17 -14 12 -3 12 13 -14 -5
0000d0 f7 03 c3 f2 02 00 f0 19 ac ff 04 02 10 f3 04 05
       -9 3 -61 -14 2 0 -16 25 -84 -1 4 2 16 -13 4 5
0000e0 ec fe d9 fc ff f7 f9 e6 c3 0e f1 01 f6 cf 0b 04
       -20 -2 -39 -4 -1 -9 -7 -26 -61 14 -15 1 -10 -49 11 4
0000f0 c5 bf cd f0 d4 08 04 04 19 fb fe ef f1 fb 0d ee
       -59 -65 -51 -16 -44 8 4 4 25 -5 -2 -17 -15 -5 13 -18

lenet/sequential_1/conv2d_1/Conv2D i1 [16, 5, 5, 6]
000000 08 f8 0a 1a 10 13 15 17 07 32 08 03 e2 39 14 46
       8 -8 10 26 16 19 21 23 7 50 8 3 -30 57 20 70
000010 1e 06 c2 2d 03 42 40 d2 f8 24 fc 2a 32 eb 08 04
       30 6 -62 45 3 66 64 -46 -8 36 -4 42 50 -21 8 4
000020 00 0a 03 0f da 1a f1 f1 1d ef a0 02 ce e7 58 d0
       0 10 3 15 -38 26 -15 -15 29 -17 -96 2 -50 -25 88 -48
000030 b6 d0 ba be 6f be c7 e0 bd f2 2f bd 10 f8 fa fa
       -74 -48 -70 -66 111 -66 -57 -32 -67 -14 47 -67 16 -8 -6 -6
000040 14 10 f9 cb f4 d8 34 f8 ca 93 c0 99 39 c9 e6 81
       20 16 -7 -53 -12 -40 52 -8 -54 -109 -64 -103 57 -55 -26 -127
000050 da 92 27 e3 20 c2 fb e2 01 fb 33 f3 26 04 ef 21
       -38 -110 39 -29 32 -62 -5 -30 1 -5 51 -13 38 4 -17 33
000060 0b d4 20 da f6 29 19 ae e8 ba 05 0b 39 b5 fc d9
       11 -44 32 -38 -10 41 25 -82 -24 -70 5 11 57 -75 -4 -39
000070 eb 2a 25 09 15 18 e5 15 37 1e 38 0b de 3f 3a 10
       -21 42 37 9 21 24 -27 21 55 30 56 11 -34 63 58 16
000080 2c 0a e8 45 26 fd 37 fb d9 28 3e 0c 23 37 e3 3f
       44 10 -24 69 38 -3 55 -5 -39 40 62 12 35 55 -29 63
000090 2a 2c 11 22 06 30 26 f8 fd ec f2 1d 21 01 1b 06
       42 44 17 34 6 48 38 -8 -3 -20 -14 29 33 1 27 6
0000a0 e1 14 06 25 03 1e 0f 11 ca 47 f5 30 16 fe c2 45
       -31 20 6 37 3 30 15 17 -54 71 -11 48 22 -2 -62 69
0000b0 fe 47 28 da 08 01 19 08 f2 11 f7 1c 0a 14 07 0b
       -2 71 40 -38 8 1 25 8 -14 17 -9 28 10 20 7 11
0000c0 c1 06 ef e3 34 db a5 d8 af c3 51 ad ae f4 a4 ba
       -63 6 -17 -29 52 -37 -91 -40 -81 -61 81 -83 -82 -12 -92 -70
0000d0 48 b2 2b ff 15 00 de 2b 13 ea 15 d8 03 12 da a0
       72 -78 43 -1 21 0 -34 43 19 -22 21 -40 3 18 -38 -96
0000e0 d4 a6 25 fa e4 81 d8 8c 21 dc 1b 86 cd 90 0c f2
       -44 -90 37 -6 -28 -127 -40 -116 33 -36 27 -122 -51 -112 12 -14
0000f0 16 1b 26 ff e4 34 3f c9 22 dc c8 2d 35 97 0d af
       22 27 38 -1 -28 52 63 -55 34 -36 -56 45 53 -105 13 -81

lenet/sequential/conv2d/Conv2D i1 [6, 5, 5, 1]
000000 94 b7 bd b6 98 ae f9 04 f6 0b fc 48 2c 4a 31 5e
       -108 -73 -67 -74 -104 -82 -7 4 -10 11 -4 72 44 74 49 94
000010 60 7f 55 4a 30 41 13 14 17 2a 45 7f 36 32 17 68
       96 127 85 74 48 65 19 20 23 42 69 127 54 50 23 104
000020 71 23 26 ed 57 5e 18 f9 fd 34 0d e5 c7 c5 b3 af
       113 35 38 -19 87 94 24 -7 -3 52 13 -27 -57 -59 -77 -81
000030 9f a5 b1 c4 cf f2 da 15 25 25 3d 22 44 70 7f 53
       -97 -91 -79 -60 -49 -14 -38 21 37 37 61 34 68 112 127 83
000040 20 25 4f 29 2d 15 0f 19 03 d9 c2 bf 15 5b 4d 4e
       32 37 79 41 45 21 15 25 3 -39 -62 -65 21 91 77 78
000050 12 35 7f 57 39 e3 47 64 43 1b f2 27 19 19 f0 8b
       18 53 127 87 57 -29 71 100 67 27 -14 39 25 25 -16 -117
000060 9b b1 8c a2 56 38 4d 4b 37 3e 02 f1 f9 16 d2 d0
       -101 -79 -116 -94 86 56 77 75 55 62 2 -15 -7 22 -46 -48
000070 be b3 b2 ba b4 81 8d c8 f7 b0 ce e5 fd ca b8 ca
       -66 -77 -78 -70 -76 -127 -115 -56 -9 -80 -50 -27 -3 -54 -72 -54
000080 b7 c5 02 07 ee 1c 1a 39 32 34 71 47 65 75 7f 46
       -73 -59 2 7 -18 28 26 57 50 52 113 71 101 117 127 70
000090 2c 2f 1f f4 f6 f1
       44 47 31 -12 -10 -15
