models/pretrained_models/lenet5_mnist_old.tflite (tflite, 71480 bytes, 5 tensors)

lenet/dense_1/MatMul i1 [10, 84] scale=0.0047731483 zero_point=0
-0.32934722 -0.052504633 -0.21479167 0.36275926 -0.06682408 0.128875 0.10023612 0.19092593
0.44867593 0.21001853 -0.10978241 0.1384213 0.3341204 -0.2672963 -0.18137963 -0.22433797
-0.16228704 0.34843984 -0.4057176 -0.27206945 -0.21956483 -0.10023612 0.32457408 0.128875
0.3150278 0.009546297 -0.5059537 -0.1670602 0.0 -0.02386574 0.33889353 -0.04773148
-0.13364816 0.24343057 -0.090689816 -0.0047731483 -0.48208797 -0.26252314 -0.25775 0.124101855
-0.4439028 0.038185187 0.1384213 0.25775 -0.24343057 -0.5584583 -0.15274075 0.0047731483
-0.32934722 0.35798612 -0.22433797 -0.27206945 -0.04773148 0.29116204 -0.21479167 0.1670602
-0.34843984 0.14319445 -0.019092593 -0.1384213 -0.21956483 0.4343565 -0.22433797 -0.32934722
0.20524538 0.18137963 -0.11932871 0.09546296 0.21001853 -0.3054815 -0.31025463 -0.46299538
0.38662502 -0.29593518 0.062050927 0.27206945 0.07637037 -0.014319445 -0.34843984 0.071597226
-0.105009265 0.10978241 0.28161576 -0.21479167 0.33889353 0.090689816 -0.10978241 0.08114352
-0.16228704 0.14319445 -0.19092593 0.052504633 -0.19092593 -0.26252314 0.08591667 0.16228704
0.24820371 0.19092593 0.34843984 0.25297686 -0.21001853 0.19569908 0.11455556 0.34843984
0.44867593 -0.014319445 -0.18137963 -0.15274075 0.4534491 -0.37230557 -0.17660649 0.15274075
0.11455556 0.052504633 -0.03341204 -0.105009265 -0.22433797 0.25297686 -0.3150278 0.5011806
-0.42958334 -0.29116204 0.15274075 0.17660649 -0.11932871 0.2672963 -0.21001853 0.038185187
-0.009546297 0.071597226 0.23388427 -0.4439028 0.16228704 -0.23388427 0.35798612 -0.08591667
-0.26252314 0.3150278 0.11932871 0.038185187 0.2863889 -0.124101855 0.02386574 0.17183334
0.23865741 -0.11455556 0.16228704 0.38185185 0.32934722 -0.23388427 0.14319445 -0.105009265
-0.07637037 -0.014319445 -0.019092593 0.06682408 0.44867593 -0.08591667 -0.28161576 -0.17660649
0.08591667 -0.19569908 0.2672963 -0.25297686 -0.06682408 0.02863889 -0.0047731483 -0.23865741
0.08591667 0.05727778 0.02863889 -0.35321298 -0.3341204 -0.60618985 0.02863889 0.14319445
0.17183334 0.128875 -0.038185187 0.09546296 -0.05727778 0.35798612 0.038185187 0.3054815
-0.1575139 -0.23388427 -0.019092593 0.34366667 -0.08114352 -0.4343565 -0.14319445 -0.3961713
0.04773148 -0.20524538 0.39139816 0.038185187 0.5011806 -0.1575139 -0.02386574 -0.31980094
0.19092593 0.15274075 0.04773148 0.128875 -0.22911112 -0.05727778 -0.10023612 -0.21956483
-0.34843984 0.3341204 0.29593518 -0.34843984 -0.29116204 0.31025463 0.3150278 0.08114352
-0.42958334 -0.27206945 -0.014319445 0.15274075 -0.3961713 0.3150278 0.14319445 -0.08114352
0.21479167 -0.3341204 -0.26252314 -0.17660649 0.4152639 -0.04773148 -0.43912965 0.18137963
0.10023612 0.2768426 -0.2863889 0.3341204 0.4057176 -0.23865741 0.4725417 -0.3054815
-0.14796759 0.21479167 0.2672963 0.29116204 0.038185187 0.08114352 0.33889353 -0.33889353
-0.48208797 -0.17660649 0.37230557 0.03341204 0.21001853 0.128875 0.21956483 0.25297686
00000000: bbf5 d34c f21b 1528 5e2c e91d 46c8 dad1
00000010: de49 abc7 d2eb 441b 4202 96dd 00fb 47f6
00000020: e433 edff 9bc9 ca1a a308 1d36 cd8b e001
00000030: bb4b d1c7 f63d d323 b71e fce3 d25b d1bb
00000040: 2b26 e714 2cc0 bf9f 51c2 0d39 10fd b70f
00000050: ea17 3bd3 4713 e911 de1e d80b d8c9 1222
00000060: 3428 4935 d429 1849 5efd dae0 5fb2 db20
00000070: 180b f9ea d135 be69 a6c3 2025 e738 d408
00000080: fe0f 31a3 22cf 4bee c942 1908 3ce6 0524
00000090: 32e8 2250 45cf 1eea f0fd fc0e 5eee c5db
000000a0: 12d7 38cb f206 ffce 120c 06b6 ba81 061e
000000b0: 241b f814 f44b 0840 dfcf fc48 efa5 e2ad
000000c0: 0ad5 5208 69df fbbd 2820 0a1b d0f4 ebd2
000000d0: b746 3eb7 c341 4211 a6c7 fd20 ad42 1eef
000000e0: 2dba c9db 57f6 a426 153a c446 55ce 63c0
000000f0: e12d 383d 0811 47b9 9bdb 4e07 2c1b 2e35

lenet/dense/MatMul i1 [84, 120] scale=0.005337387 zero_point=0
-0.005337387 -0.005337387 -0.10674774 -0.12809728 0.08539819 -0.13877206 0.11742251 0.16545899
0.021349547 0.05337387 -0.16545899 0.096072964 -0.2028207 0.08539819 0.03202432 -0.21883287
-0.11742251 -0.14944683 -0.037361708 -0.037361708 -0.17613377 -0.06938603 -0.1227599 0.15478422
0.14944683 0.01601216 0.14410944 -0.26153195 -0.1227599 -0.17079638 -0.18147115 0.05337387
-0.11208513 -0.06404864 0.096072964 -0.14944683 0.16545899 0.021349547 -0.10141035 -0.18680854
-0.06938603 0.01601216 0.03202432 0.048036482 0.10674774 0.026686935 0.021349547 0.15478422
0.1227599 -0.074723415 0.096072964 0.1227599 -0.074723415 0.13343467 -0.11742251 -0.06404864
0.026686935 -0.026686935 0.13877206 0.010674774 0.010674774 -0.042699095 -0.25619456 0.021349547
0.10141035 -0.048036482 -0.021349547 0.13877206 0.2028207 0.14944683 0.13343467 0.096072964
0.11742251 -0.21883287 -0.096072964 0.14410944 -0.11742251 -0.06404864 0.096072964 -0.01601216
-0.06938603 -0.026686935 -0.24018241 0.1227599 -0.06938603 -0.1601216 -0.13343467 -0.03202432
0.08539819 -0.19214593 -0.11208513 0.074723415 0.03202432 -0.16545899 0.0 0.19214593
0.10141035 0.037361708 0.11742251 -0.096072964 -0.026686935 0.13343467 -0.21349548 -0.17079638
0.1601216 0.18680854 0.19214593 0.30423105 -0.042699095 0.037361708 0.05337387 0.037361708
0.048036482 0.05337387 -0.03202432 -0.05337387 0.13877206 -0.01601216 0.0800608 0.17613377
-0.01601216 0.0 0.11208513 -0.15478422 -0.10141035 -0.074723415 0.06404864 -0.16545899
0.22950764 0.01601216 -0.21349548 0.18147115 -0.18147115 -0.037361708 -0.13343467 -0.20815809
-0.037361708 -0.21349548 0.1227599 0.01601216 0.042699095 -0.25619456 0.34693015 0.13343467
0.074723415 -0.09073558 0.03202432 -0.16545899 0.0800608 0.2455198 -0.1227599 -0.06404864
-0.14410944 0.18680854 -0.22417025 0.096072964 -0.21349548 -0.19214593 0.005337387 0.12809728
0.22417025 -0.037361708 0.1601216 0.11208513 0.19214593 0.048036482 0.005337387 -0.22417025
-0.14944683 -0.058711257 0.010674774 -0.33625537 -0.074723415 -0.010674774 -0.010674774 0.21883287
0.17613377 0.026686935 0.31490582 0.45901528 0.22417025 -0.14410944 -0.24018241 -0.16545899
0.09073558 -0.08539819 0.11208513 -0.11208513 0.042699095 -0.16545899 0.042699095 0.21883287
0.037361708 0.06938603 0.19748332 0.05337387 0.021349547 -0.16545899 0.11208513 -0.23484503
-0.021349547 0.03202432 -0.037361708 0.1601216 -0.12809728 0.0 -0.10674774 -0.2028207
-0.12809728 0.21883287 -0.29355627 0.05337387 -0.20815809 0.03202432 0.026686935 -0.042699095
0.021349547 0.19748332 -0.06404864 -0.01601216 0.010674774 0.03202432 0.13877206 -0.026686935
0.1601216 0.11208513 0.048036482 -0.34693015 0.16545899 0.17079638 0.17613377 0.03202432
-0.05337387 -0.0800608 0.22417025 0.19214593 -0.1601216 -0.4483405 -0.17613377 -0.25619456
-0.096072964 -0.010674774 -0.2455198 0.06404864 0.10674774 0.20815809 0.08539819 -0.16545899
0.2455198 -0.17079638 0.25619456 0.3682797 -0.14410944 0.19748332 -0.21349548 0.0800608
00000000: ffff ece8 10e6 161f 040a e112 da10 06d7
00000010: eae4 f9f9 dff3 e91d 1c03 1bcf e9e0 de0a
00000020: ebf4 12e4 1f04 eddd f303 0609 1405 041d
00000030: 17f2 1217 f219 eaf4 05fb 1a02 02f8 d004
00000040: 13f7 fc1a 261c 1912 16d7 ee1b eaf4 12fd
00000050: f3fb d317 f3e2 e7fa 10dc eb0e 06e1 0024
00000060: 1307 16ee fb19 d8e0 1e23 2439 f807 0a07
00000070: 090a faf6 1afd 0f21 fd00 15e3 edf2 0ce1
00000080: 2b03 d822 def9 e7d9 f9d8 1703 08d0 4119
00000090: 0eef 06e1 0f2e e9f4 e523 d612 d8dc 0118
000000a0: 2af9 1e15 2409 01d6 e4f5 02c1 f2fe fe29
000000b0: 2105 3b56 2ae5 d3e1 11f0 15eb 08e1 0829
000000c0: 070d 250a 04e1 15d4 fc06 f91e e800 ecda
000000d0: e829 c90a d906 05f8 0425 f4fd 0206 1afb
000000e0: 1e15 09bf 1f20 2106 f6f1 2a24 e2ac dfd0
000000f0: eefe d20c 1427 10e1 2ee0 3045 e525 d80f

lenet/sequential_2/conv2d_2/Conv2D i1 [120, 5, 5, 16]
-10 2 -18 -9 -20 -18 -6 -4
12 -31 -3 -1 -4 -80 29 -23
10 8 -21 23 5 -31 10 3
-19 -27 -23 -21 18 -85 9 -84
-7 -4 12 -9 -23 -58 -16 -23
-9 -43 4 -41 -6 17 1 -2
-1 8 11 0 -5 16 -17 -10
21 -37 0 9 -1 34 21 43
-1 -11 10 5 -3 21 -13 6
10 -10 11 9 16 20 2 32
-17 -7 -1 9 14 -24 1 4
2 -50 -6 1 -15 1 -22 -46
-14 11 1 -11 -16 9 0 13
20 53 -4 35 17 60 -80 12
14 -2 9 22 17 20 -10 9
-3 39 19 -34 22 -127 43 47
2 3 19 -24 -7 -25 12 7
9 -45 7 -7 9 34 35 88
-21 19 -21 -23 13 41 9 -16
-10 46 25 62 -10 46 -34 45
-2 17 21 -5 -20 38 21 24
-6 42 2 72 17 71 -98 30
24 14 11 21 -4 72 -21 6
-10 72 -12 -20 -3 -44 -48 0
-22 -18 14 16 -22 -73 21 5
0 -70 1 -105 6 -123 86 -77
-6 -23 -19 7 16 -96 4 9
18 -53 -15 -60 21 -26 27 -48
-21 12 6 -7 -12 6 -6 11
-18 0 0 7 19 11 21 42
7 -21 14 -23 7 36 -14 15
13 34 5 51 -8 66 -44 -9
00000000: f602 eef7 ecee fafc 0ce1 fdff fcb0 1de9
00000010: 0a08 eb17 05e1 0a03 ede5 e9eb 12ab 09ac
00000020: f9fc 0cf7 e9c6 f0e9 f7d5 04d7 fa11 01fe
00000030: ff08 0b00 fb10 eff6 15db 0009 ff22 152b
00000040: fff5 0a05 fd15 f306 0af6 0b09 1014 0220
00000050: eff9 ff09 0ee8 0104 02ce fa01 f101 ead2
00000060: f20b 01f5 f009 000d 1435 fc23 113c b00c
00000070: 0efe 0916 1114 f609 fd27 13de 1681 2b2f
00000080: 0203 13e8 f9e7 0c07 09d3 07f9 0922 2358
00000090: eb13 ebe9 0d29 09f0 f62e 193e f62e de2d
000000a0: fe11 15fb ec26 1518 fa2a 0248 1147 9e1e
000000b0: 180e 0b15 fc48 eb06 f648 f4ec fdd4 d000
000000c0: eaee 0e10 eab7 1505 00ba 0197 0685 56b3
000000d0: fae9 ed07 10a0 0409 12cb f1c4 15e6 1bd0
000000e0: eb0c 06f9 f406 fa0b ee00 0007 130b 152a
000000f0: 07eb 0ee9 0724 f20f 0d22 0533 f842 d4f7

lenet/sequential_1/conv2d_1/Conv2D i1 [16, 5, 5, 6]
-13 5 -36 -71 7 27 -41 -107
11 10 -94 0 26 19 -91 -99
-50 -91 -3 -73 -13 -103 16 -26
-23 -65 -100 -11 -105 -67 1 -54
-94 -82 -87 -18 -69 -66 -28 -36
-58 18 9 -21 -113 -13 -110 -82
-20 -10 23 -79 2 -1 -58 -16
-97 -39 0 -94 -50 -53 19 32
-28 -80 -39 -80 -29 -64 -90 -93
-96 -12 -6 -79 -68 -97 -48 35
-41 -92 -114 -35 -44 -89 1 -4
-44 -82 -32 -110 -32 -91 -110 30
-36 -60 -110 -84 -122 -48 -74 -6
-100 -12 -69 -76 -127 -90 17 -10
-112 -58 -35 -91 -65 -86 -126 36
-113 -18 11 -108 -86 -53 -18 -73
-26 -30 -54 -95 -108 -71 -108 -88
-112 -13 7 -17 25 -86 -28 11
-32 27 -113 12 -79 -106 -104 -27
-37 32 15 0 -74 -102 37 25
-2 -40 -123 -82 -88 19 -23 -22
-127 25 -34 23 -90 -12 -105 -14
-98 18 -12 -3 -80 -25 -110 15
25 -71 -73 -14 -39 -81 -73 -82
-72 -69 -109 -87 -108 -7 -62 -90
-66 10 0 -63 -98 -54 -65 -78
16 -95 -83 -105 -33 29 18 -113
-26 -32 17 -79 5 -49 -63 -97
-86 -25 -35 -59 -37 -115 -87 -10
-63 -26 -57 -45 -10 -97 -15 10
-120 -97 -47 36 -123 2 25 23
-85 21 -101 -108 -47 -89 -27 -52
00000000: f305 dcb9 071b d795 0b0a a200 1a13 a59d
00000010: cea5 fdb7 f399 10e6 e9bf 9cf5 97bd 01ca
00000020: a2ae a9ee bbbe e4dc c612 09eb 8ff3 92ae
00000030: ecf6 17b1 02ff c6f0 9fd9 00a2 cecb 1320
00000040: e4b0 d9b0 e3c0 a6a3 a0f4 fab1 bc9f d023
00000050: d7a4 8edd d4a7 01fc d4ae e092 e0a5 921e
00000060: dcc4 92ac 86d0 b6fa 9cf4 bbb4 81a6 11f6
00000070: 90c6 dda5 bfaa 8224 8fee 0b94 aacb eeb7
00000080: e6e2 caa1 94b9 94a8 90f3 07ef 19aa e40b
00000090: e01b 8f0c b196 98e5 db20 0f00 b69a 2519
000000a0: fed8 85ae a813 e9ea 8119 de17 a6f4 97f2
000000b0: 9e12 f4fd b0e7 920f 19b9 b7f2 d9af b7ae
000000c0: b8bb 93a9 94f9 c2a6 be0a 00c1 9eca bfb2
000000d0: 10a1 ad97 df1d 128f e6e0 11b1 05cf c19f
000000e0: aae7 ddc5 db8d a9f6 c1e6 c7d3 f69f f10a
000000f0: 889f d124 8502 1917 ab15 9b94 d1a7 e5cc

lenet/sequential/conv2d/Conv2D i1 [6, 5, 5, 1]
-1 -74 -127 -50 -50 20 -62 -84
-41 -23 11 -50 -54 -36 5 18
-10 -32 18 56 59 58 67 68
84 -86 -34 -52 -22 -15 -4 54
63 69 31 11 84 127 59 46
-2 38 60 48 1 -23 -2 -29
-24 -64 -116 -87 -104 -104 -84 -44
15 13 20 6 36 74 66 84
45 79 127 120 105 74 55 98
45 22 17 -61 -44 -34 -13 -26
2 30 44 78 40 26 92 127
43 28 21 59 39 30 -1 -5
33 8 -22 -52 -81 -84 -99 -66
-38 -61 -127 -85 -51 5 -40 -74
-35 -23 22 -8 -47 -15 15 66
20 45 63 88 100 -33 3 60
59 54 -12 70 127 72 56 -16
55 74 47 15 -21 27 39 7
-20 -85 -59 -79 -75 -105
00000000: ffb6 81ce ce14 c2ac d7e9 0bce cadc 0512
00000010: f6e0 1238 3b3a 4344 54aa decc eaf1 fc36
00000020: 3f45 1f0b 547f 3b2e fe26 3c30 01e9 fee3
00000030: e8c0 8ca9 9898 acd4 0f0d 1406 244a 4254
00000040: 2d4f 7f78 694a 3762 2d16 11c3 d4de f3e6
00000050: 021e 2c4e 281a 5c7f 2b1c 153b 271e fffb
00000060: 2108 eacc afac 9dbe dac3 81ab cd05 d8b6
00000070: dde9 16f8 d1f1 0f42 142d 3f58 64df 033c
00000080: 3b36 f446 7f48 38f0 374a 2f0f eb1b 2707
00000090: ecab c5b1 b597
