models/pretrained_models/lenet5_int8_mnist.tflite (tflite, 71480 bytes, 5 tensors)

lenet/dense_1/MatMul i1 [10, 84] scale=0.004761694 zero_point=0
0	0x33	0.2428464
1	0xdf	-0.1571359
2	0x10	0.076187104
3	0xc7	-0.27141654
4	0xe8	-0.114280656
5	0xd4	-0.20951453
6	0x65	0.4809311
7	0x49	0.34760365
8	0x5b	0.43331414
9	0x3a	0.27617824
10	0x6a	0.5047396
11	0x22	0.1618976
12	0xd0	-0.22856131
13	0xc3	-0.29046333
14	0xd3	-0.21427622
15	0x22	0.1618976
16	0xcd	-0.2428464
17	0x54	0.3999823
18	0x33	0.2428464
19	0xf3	-0.061902024
20	0x38	0.26665485
21	0x48	0.34284198
22	0x46	0.3333186
23	0xc5	-0.28093994
24	0xd2	-0.21903792
25	0xeb	-0.099995576
26	0x05	0.02380847
27	0x44	0.3237952
28	0x13	0.090472184
29	0xc8	-0.26665485
30	0xee	-0.085710496
31	0x2f	0.22379962
32	0xe7	-0.11904235
33	0xbb	-0.3285569
34	0xdf	-0.1571359
35	0x30	0.22856131
36	0xe9	-0.10951896
37	0xf0	-0.076187104
38	0x39	0.27141654
39	0x4b	0.35712704
40	0x2c	0.20951453
41	0x28	0.19046776
42	0x1e	0.14285082
43	0x24	0.17142099
44	0xa8	-0.41902906
45	0xd9	-0.18570606
46	0xbd	-0.3190335
47	0x2b	0.20475285
48	0xa6	-0.42855245
49	0xd4	-0.20951453
50	0xd5	-0.20475285
51	0xf6	-0.04761694
52	0x37	0.26189318
53	0x2a	0.19999115
54	0xc6	-0.27617824
55	0xcd	-0.2428464
56	0xb7	-0.34760365
57	0x2b	0.20475285
58	0x1c	0.13332742
59	0xe2	-0.14285082
60	0x1c	0.13332742
61	0xb5	-0.35712704
62	0xd8	-0.19046776
63	0xa8	-0.41902906
64	0xb8	-0.34284198
65	0xe9	-0.10951896
66	0x54	0.3999823
67	0xce	-0.2380847
68	0x07	0.033331856
69	0xb9	-0.3380803
70	0x29	0.19522946
71	0xcc	-0.2476081
72	0xc2	-0.29522502
73	0x0f	0.07142541
74	0x2e	0.21903792
75	0xc9	-0.26189318
76	0xbd	-0.3190335
77	0xd2	-0.21903792
78	0x06	0.028570164
79	0x2a	0.19999115
80	0xf6	-0.04761694
81	0x0b	0.052378632
82	0x33	0.2428464
83	0x28	0.19046776
84	0xb7	-0.34760365
85	0x2a	0.19999115
86	0x32	0.2380847
87	0x19	0.11904235
88	0xc6	-0.27617824
89	0x2c	0.20951453
90	0xc7	-0.27141654
91	0x34	0.2476081
92	0xd4	-0.20951453
93	0xee	-0.085710496
94	0xfa	-0.028570164
95	0x34	0.2476081
96	0x67	0.4904545
97	0x44	0.3237952
98	0x50	0.38093552
99	0xdc	-0.17142099
100	0x25	0.17618267
101	0xf3	-0.061902024
102	0xd7	-0.19522946
103	0xe0	-0.15237421
104	0xd2	-0.21903792
105	0x10	0.076187104
106	0xa2	-0.44759923
107	0xda	-0.18094437
108	0x1a	0.12380405
109	0xb4	-0.36188874
110	0xf5	-0.052378632
111	0x2e	0.21903792
112	0x05	0.02380847
113	0x1d	0.13808912
114	0xe0	-0.15237421
115	0xbf	-0.3095101
116	0x50	0.38093552
117	0xee	-0.085710496
118	0xec	-0.09523388
119	0xd5	-0.20475285
120	0xb1	-0.37617382
121	0xd1	-0.22379962
122	0xfd	-0.014285082
123	0xe9	-0.10951896
124	0x38	0.26665485
125	0x44	0.3237952
126	0xbc	-0.3237952
127	0xdc	-0.17142099
128	0x0e	0.06666371
129	0xce	-0.2380847
130	0x07	0.033331856
131	0xd1	-0.22379962
132	0x07	0.033331856
133	0xfd	-0.014285082
134	0xd6	-0.19999115
135	0x0d	0.061902024
136	0x2e	0.21903792
137	0x43	0.3190335
138	0xd4	-0.20951453
139	0xef	-0.0809488
140	0x3e	0.29522502
141	0x05	0.02380847
142	0xc2	-0.29522502
143	0x27	0.18570606
144	0xfe	-0.009523388
145	0x45	0.3285569
146	0xa9	-0.4142674
147	0xf5	-0.052378632
148	0x2c	0.20951453
149	0xd3	-0.21427622
150	0x03	0.014285082
151	0x36	0.2571315
152	0x6a	0.5047396
153	0xbf	-0.3095101
154	0x58	0.41902906
155	0x02	0.009523388
156	0x0a	0.04761694
157	0x31	0.23332301
158	0x30	0.22856131
159	0x4b	0.35712704
160	0x3e	0.29522502
161	0xf8	-0.038093552
162	0x49	0.34760365
163	0xff	-0.004761694
164	0x5a	0.42855245
165	0xba	-0.3333186
166	0x2e	0.21903792
167	0x1d	0.13808912
168	0xeb	-0.099995576
169	0xc6	-0.27617824
170	0x1d	0.13808912
171	0x23	0.1666593
172	0xda	-0.18094437
173	0x29	0.19522946
174	0xf0	-0.076187104
175	0x53	0.3952206
176	0xd8	-0.19046776
177	0xdd	-0.1666593
178	0xc1	-0.29998672
179	0x9a	-0.4856928
180	0x3e	0.29522502
181	0xfa	-0.028570164
182	0xdc	-0.17142099
183	0x47	0.3380803
184	0x26	0.18094437
185	0x32	0.2380847
186	0xec	-0.09523388
187	0xd4	-0.20951453
188	0xa8	-0.41902906
189	0xe8	-0.114280656
190	0x21	0.1571359
191	0x88	-0.57140326
192	0xbf	-0.3095101
193	0xa5	-0.43331414
194	0xe9	-0.10951896
195	0x3b	0.28093994
196	0xc9	-0.26189318
197	0x9e	-0.46664602
198	0xf5	-0.052378632
199	0x3a	0.27617824
200	0xa5	-0.43331414
201	0xf6	-0.04761694
202	0xe5	-0.12856574
203	0x34	0.2476081
204	0xcf	-0.23332301
205	0x56	0.4095057
206	0xf7	-0.042855248
207	0x46	0.3333186
208	0xcd	-0.2428464
209	0x13	0.090472184
210	0xec	-0.09523388
211	0x10	0.076187104
212	0x59	0.42379075
213	0xf5	-0.052378632
214	0x1a	0.12380405
215	0xca	-0.2571315
216	0x39	0.27141654
217	0x11	0.0809488
218	0xdd	-0.1666593
219	0x2b	0.20475285
220	0xaf	-0.38569722
221	0xbf	-0.3095101
222	0xa2	-0.44759923
223	0x3e	0.29522502
224	0xef	-0.0809488
225	0x1c	0.13332742
226	0x0a	0.04761694
227	0xe5	-0.12856574
228	0x1a	0.12380405
229	0x08	0.038093552
230	0xd3	-0.21427622
231	0xf2	-0.06666371
232	0x09	0.042855248
233	0x38	0.26665485
234	0x4d	0.36665043
235	0x2b	0.20475285
236	0x4a	0.35236534
237	0x23	0.1666593
238	0xc7	-0.27141654
239	0xd8	-0.19046776
240	0x20	0.15237421
241	0x37	0.26189318
242	0xc3	-0.29046333
243	0x3f	0.29998672
244	0x3d	0.29046333
245	0x0b	0.052378632
246	0xd7	-0.19522946
247	0x1f	0.14761251
248	0x37	0.26189318
249	0x30	0.22856131
250	0xbf	-0.3095101
251	0xe6	-0.12380405
252	0xda	-0.18094437
253	0x47	0.3380803
254	0xb5	-0.35712704
255	0x4b	0.35712704

lenet/dense/MatMul i1 [84, 120] scale=0.0051167584 zero_point=0
0	0x0a	0.051167585
1	0xde	-0.17396979
2	0xf0	-0.081868134
3	0xce	-0.25583792
4	0xfd	-0.015350275
5	0x0e	0.07163462
6	0x24	0.1842033
7	0xff	-0.0051167584
8	0x27	0.19955358
9	0xdb	-0.18932006
10	0xfe	-0.010233517
11	0x0e	0.07163462
12	0x16	0.112568684
13	0x11	0.086984895
14	0xe8	-0.1228022
15	0x0a	0.051167585
16	0xf0	-0.081868134
17	0xe1	-0.15861951
18	0xf5	-0.056284342
19	0x28	0.20467034
20	0x3f	0.32235578
21	0xc9	-0.28142172
22	0xe7	-0.12791896
23	0x14	0.10233517
24	0x01	0.0051167584
25	0x08	0.040934067
26	0x03	0.015350275
27	0x05	0.025583792
28	0x09	0.046050824
29	0x1d	0.14838599
30	0xdb	-0.18932006
31	0xf8	-0.040934067
32	0xef	-0.086984895
33	0x02	0.010233517
34	0x21	0.16885303
35	0x10	0.081868134
36	0xff	-0.0051167584
37	0x23	0.17908655
38	0x17	0.117685445
39	0x2c	0.22513737
40	0x26	0.19443682
41	0x15	0.10745192
42	0x0a	0.051167585
43	0xd8	-0.20467034
44	0x0d	0.06651786
45	0x12	0.09210165
46	0x0e	0.07163462
47	0x0c	0.0614011
48	0x13	0.09721841
49	0x03	0.015350275
50	0xff	-0.0051167584
51	0x08	0.040934067
52	0xfe	-0.010233517
53	0x02	0.010233517
54	0x2c	0.22513737
55	0x09	0.046050824
56	0x08	0.040934067
57	0xfc	-0.020467034
58	0x26	0.19443682
59	0xda	-0.19443682
60	0x00	0.0
61	0xea	-0.112568684
62	0xf2	-0.07163462
63	0xf4	-0.0614011
64	0xec	-0.10233517
65	0xfa	-0.03070055
66	0xf4	-0.0614011
67	0xfa	-0.03070055
68	0x20	0.16373627
69	0xf6	-0.051167585
70	0x0b	0.056284342
71	0x1c	0.14326924
72	0xdd	-0.17908655
73	0xf4	-0.0614011
74	0xec	-0.10233517
75	0x02	0.010233517
76	0x0b	0.056284342
77	0xe3	-0.14838599
78	0x13	0.09721841
79	0x20	0.16373627
80	0x15	0.10745192
81	0x1e	0.15350275
82	0xfb	-0.025583792
83	0x16	0.112568684
84	0x23	0.17908655
85	0xfb	-0.025583792
86	0xdd	-0.17908655
87	0x29	0.2097871
88	0x30	0.2456044
89	0xf5	-0.056284342
90	0xe4	-0.14326924
91	0x00	0.0
92	0xe6	-0.13303572
93	0x22	0.17396979
94	0x17	0.117685445
95	0x05	0.025583792
96	0x06	0.03070055
97	0x0e	0.07163462
98	0xec	-0.10233517
99	0x25	0.18932006
100	0x0d	0.06651786
101	0x0e	0.07163462
102	0xff	-0.0051167584
103	0xcd	-0.26095468
104	0xe3	-0.14838599
105	0xe9	-0.117685445
106	0xfe	-0.010233517
107	0xfa	-0.03070055
108	0xf9	-0.03581731
109	0xe8	-0.1228022
110	0x1b	0.13815248
111	0xeb	-0.10745192
112	0x12	0.09210165
113	0x0e	0.07163462
114	0x2c	0.22513737
115	0x04	0.020467034
116	0x0a	0.051167585
117	0xea	-0.112568684
118	0xee	-0.09210165
119	0x11	0.086984895
120	0xfc	-0.020467034
121	0x1c	0.14326924
122	0x18	0.1228022
123	0xee	-0.09210165
124	0x29	0.2097871
125	0x1d	0.14838599
126	0xe2	-0.15350275
127	0xde	-0.17396979
128	0xf7	-0.046050824
129	0xc0	-0.32747254
130	0x0c	0.0614011
131	0x10	0.081868134
132	0xf4	-0.0614011
133	0x08	0.040934067
134	0xed	-0.09721841
135	0xfc	-0.020467034
136	0x02	0.010233517
137	0x24	0.1842033
138	0xfd	-0.015350275
139	0x06	0.03070055
140	0x13	0.09721841
141	0x08	0.040934067
142	0xf4	-0.0614011
143	0xf9	-0.03581731
144	0xf1	-0.07675137
145	0xe7	-0.12791896
146	0x04	0.020467034
147	0xf8	-0.040934067
148	0xfc	-0.020467034
149	0x0e	0.07163462
150	0x20	0.16373627
151	0xf5	-0.056284342
152	0xf8	-0.040934067
153	0xda	-0.19443682
154	0x0b	0.056284342
155	0x1a	0.13303572
156	0xfc	-0.020467034
157	0xe6	-0.13303572
158	0x1b	0.13815248
159	0xe8	-0.1228022
160	0xf6	-0.051167585
161	0x0a	0.051167585
162	0x05	0.025583792
163	0x33	0.26095468
164	0xcd	-0.26095468
165	0xf2	-0.07163462
166	0x12	0.09210165
167	0x19	0.12791896
168	0x02	0.010233517
169	0xf2	-0.07163462
170	0x1b	0.13815248
171	0xfc	-0.020467034
172	0xf4	-0.0614011
173	0xfb	-0.025583792
174	0x07	0.03581731
175	0xf8	-0.040934067
176	0x20	0.16373627
177	0xe2	-0.15350275
178	0xbc	-0.34793958
179	0xff	-0.0051167584
180	0x13	0.09721841
181	0x1a	0.13303572
182	0x27	0.19955358
183	0xd5	-0.2200206
184	0xfe	-0.010233517
185	0xee	-0.09210165
186	0xff	-0.0051167584
187	0x0a	0.051167585
188	0xe0	-0.16373627
189	0x3d	0.31212226
190	0x0e	0.07163462
191	0x03	0.015350275
192	0x14	0.10233517
193	0xeb	-0.10745192
194	0xd8	-0.20467034
195	0x0a	0.051167585
196	0xf4	-0.0614011
197	0x24	0.1842033
198	0xe2	-0.15350275
199	0xf4	-0.0614011
200	0xf0	-0.081868134
201	0xe7	-0.12791896
202	0xe6	-0.13303572
203	0xda	-0.19443682
204	0x26	0.19443682
205	0x37	0.28142172
206	0xef	-0.086984895
207	0xfd	-0.015350275
208	0xdf	-0.16885303
209	0x28	0.20467034
210	0x07	0.03581731
211	0xd4	-0.22513737
212	0x0c	0.0614011
213	0xf1	-0.07675137
214	0xf6	-0.051167585
215	0x0b	0.056284342
216	0xe6	-0.13303572
217	0xe5	-0.13815248
218	0xee	-0.09210165
219	0xcd	-0.26095468
220	0xde	-0.17396979
221	0x09	0.046050824
222	0xfe	-0.010233517
223	0x3f	0.32235578
224	0x17	0.117685445
225	0x08	0.040934067
226	0x17	0.117685445
227	0x04	0.020467034
228	0xe8	-0.1228022
229	0x10	0.081868134
230	0xd6	-0.21490385
231	0xe2	-0.15350275
232	0x01	0.0051167584
233	0xfd	-0.015350275
234	0xda	-0.19443682
235	0x25	0.18932006
236	0xf6	-0.051167585
237	0x2c	0.22513737
238	0xf5	-0.056284342
239	0x08	0.040934067
240	0xfd	-0.015350275
241	0x2a	0.21490385
242	0x2f	0.24048765
243	0xd2	-0.23537089
244	0xec	-0.10233517
245	0x17	0.117685445
246	0xd7	-0.2097871
247	0xdb	-0.18932006
248	0xd7	-0.2097871
249	0x02	0.010233517
250	0xdc	-0.1842033
251	0x12	0.09210165
252	0x2d	0.23025413
253	0xb3	-0.3939904
254	0x49	0.37352335
255	0x15	0.10745192

lenet/sequential_2/conv2d_2/Conv2D i1 [120, 5, 5, 16]
0	0x0f	15
1	0x1e	30
2	0x19	25
3	0xf8	-8
4	0xd8	-40
5	0xeb	-21
6	0xf5	-11
7	0x0c	12
8	0x07	7
9	0x1b	27
10	0xe5	-27
11	0xef	-17
12	0xfe	-2
13	0xe4	-28
14	0xfa	-6
15	0x02	2
16	0x29	41
17	0xfe	-2
18	0xf9	-7
19	0xf7	-9
20	0xbb	-69
21	0xf9	-7
22	0x1a	26
23	0xd5	-43
24	0xf1	-15
25	0xf4	-12
26	0x15	21
27	0x0f	15
28	0xf4	-12
29	0xff	-1
30	0xf4	-12
31	0x11	17
32	0x31	49
33	0xf2	-14
34	0x06	6
35	0xeb	-21
36	0xdd	-35
37	0xf1	-15
38	0xfd	-3
39	0xd4	-44
40	0xfa	-6
41	0xe1	-31
42	0xeb	-21
43	0xf6	-10
44	0xfb	-5
45	0xf8	-8
46	0x10	16
47	0x1d	29
48	0x2d	45
49	0xe8	-24
50	0x12	18
51	0xf3	-13
52	0xe8	-24
53	0xff	-1
54	0x13	19
55	0xe3	-29
56	0x0d	13
57	0x4b	75
58	0xe8	-24
59	0x04	4
60	0xef	-17
61	0xeb	-21
62	0x05	5
63	0x12	18
64	0xf4	-12
65	0x05	5
66	0x08	8
67	0x03	3
68	0x0f	15
69	0xf9	-7
70	0x01	1
71	0xea	-22
72	0x08	8
73	0xeb	-21
74	0x11	17
75	0x17	23
76	0xe7	-25
77	0x0a	10
78	0xf4	-12
79	0x14	20
80	0x08	8
81	0x0b	11
82	0x0a	10
83	0x03	3
84	0xe2	-30
85	0xe7	-25
86	0xe6	-26
87	0xdc	-36
88	0xf0	-16
89	0xff	-1
90	0x0d	13
91	0xe5	-27
92	0x0b	11
93	0xf0	-16
94	0xe8	-24
95	0xd6	-42
96	0x07	7
97	0xcf	-49
98	0x1a	26
99	0x12	18
100	0x1d	29
101	0x23	35
102	0xe9	-23
103	0xec	-20
104	0xf6	-10
105	0xee	-18
106	0xf4	-12
107	0xf2	-14
108	0xe9	-23
109	0x0a	10
110	0xea	-22
111	0xdd	-35
112	0xf8	-8
113	0xf9	-7
114	0xf6	-10
115	0xe5	-27
116	0x0a	10
117	0x15	21
118	0x11	17
119	0xed	-19
120	0xf2	-14
121	0xc2	-62
122	0xfe	-2
123	0xed	-19
124	0xe9	-23
125	0xf2	-14
126	0x12	18
127	0x97	-105
128	0xd6	-42
129	0x1d	29
130	0xf7	-9
131	0xf0	-16
132	0xfe	-2
133	0xe1	-31
134	0xee	-18
135	0xf9	-7
136	0x04	4
137	0x20	32
138	0x10	16
139	0xe8	-24
140	0xf8	-8
141	0xf3	-13
142	0x10	16
143	0x15	21
144	0xef	-17
145	0x0a	10
146	0x0c	12
147	0xee	-18
148	0x08	8
149	0xf7	-9
150	0x16	22
151	0xfd	-3
152	0xff	-1
153	0xc5	-59
154	0x0f	15
155	0x0e	14
156	0x03	3
157	0xed	-19
158	0xef	-17
159	0xfb	-5
160	0xdb	-37
161	0xfe	-2
162	0xf5	-11
163	0x0c	12
164	0x04	4
165	0x08	8
166	0x08	8
167	0xe3	-29
168	0x14	20
169	0x16	22
170	0xe8	-24
171	0xe4	-28
172	0x13	19
173	0x17	23
174	0xe7	-25
175	0xf9	-7
176	0xfb	-5
177	0xe8	-24
178	0xfb	-5
179	0x0b	11
180	0x19	25
181	0x3a	58
182	0x14	20
183	0xf8	-8
184	0xe7	-25
185	0x85	-123
186	0xee	-18
187	0xf3	-13
188	0xfa	-6
189	0xf0	-16
190	0xf0	-16
191	0xeb	-21
192	0x4c	76
193	0xd9	-39
194	0x12	18
195	0xfb	-5
196	0xe8	-24
197	0xca	-54
198	0x0d	13
199	0x3b	59
200	0x12	18
201	0xac	-84
202	0xf2	-14
203	0xfe	-2
204	0x08	8
205	0x15	21
206	0x15	21
207	0xea	-22
208	0xe0	-32
209	0xdf	-33
210	0xf6	-10
211	0xff	-1
212	0xf6	-10
213	0xd3	-45
214	0xe3	-29
215	0x1e	30
216	0xed	-19
217	0x7f	127
218	0x14	20
219	0x19	25
220	0x11	17
221	0xf7	-9
222	0x14	20
223	0x48	72
224	0xfc	-4
225	0xf1	-15
226	0xe4	-28
227	0x02	2
228	0xff	-1
229	0x09	9
230	0xeb	-21
231	0xfb	-5
232	0xe7	-25
233	0xcc	-52
234	0xec	-20
235	0x19	25
236	0x10	16
237	0xfa	-6
238	0x0c	12
239	0xdd	-35
240	0xe6	-26
241	0xd9	-39
242	0xf4	-12
243	0x00	0
244	0x70	112
245	0xe3	-29
246	0x15	21
247	0x55	85
248	0x03	3
249	0x08	8
250	0xfc	-4
251	0x0e	14
252	0x0a	10
253	0x06	6
254	0x03	3
255	0x23	35

lenet/sequential_1/conv2d_1/Conv2D i1 [16, 5, 5, 6]
0	0x00	0
1	0x0a	10
2	0x19	25
3	0x0e	14
4	0x12	18
5	0x2f	47
6	0x31	49
7	0xdc	-36
8	0xf6	-10
9	0x1f	31
10	0xd1	-47
11	0x1a	26
12	0x33	51
13	0xe6	-26
14	0xf3	-13
15	0x18	24
16	0xe7	-25
17	0xd0	-48
18	0x30	48
19	0xd8	-40
20	0xf4	-12
21	0x37	55
22	0xe9	-23
23	0xda	-38
24	0x14	20
25	0xfc	-4
26	0xe5	-27
27	0x2e	46
28	0xec	-20
29	0xcd	-51
30	0xfd	-3
31	0x0d	13
32	0xf8	-8
33	0x27	39
34	0x0b	11
35	0xfa	-6
36	0xed	-19
37	0x17	23
38	0xde	-34
39	0x06	6
40	0xe4	-28
41	0xd1	-47
42	0xb7	-73
43	0x1e	30
44	0xb5	-75
45	0x04	4
46	0x26	38
47	0xc2	-62
48	0xdb	-37
49	0x36	54
50	0xa8	-88
51	0xda	-38
52	0x11	17
53	0x9e	-98
54	0xfd	-3
55	0x1d	29
56	0xc6	-58
57	0x05	5
58	0x16	22
59	0xb9	-71
60	0xd2	-46
61	0x1c	28
62	0x09	9
63	0x17	23
64	0xfa	-6
65	0x0a	10
66	0xa0	-96
67	0x18	24
68	0xfd	-3
69	0xbd	-67
70	0x25	37
71	0x1e	30
72	0x81	-127
73	0x66	102
74	0xcc	-52
75	0x96	-106
76	0x5d	93
77	0xef	-17
78	0xa3	-93
79	0x78	120
80	0xc7	-57
81	0xbd	-67
82	0x72	114
83	0xfb	-5
84	0xc6	-58
85	0x5c	92
86	0xeb	-21
87	0xc3	-61
88	0x4d	77
89	0x06	6
90	0xfd	-3
91	0x1c	28
92	0x0e	14
93	0x15	21
94	0x06	6
95	0x4f	79
96	0xe2	-30
97	0xfd	-3
98	0x14	20
99	0xfd	-3
100	0x36	54
101	0x47	71
102	0xe3	-29
103	0xfe	-2
104	0x0e	14
105	0xb9	-71
106	0x39	57
107	0x4b	75
108	0xe5	-27
109	0x21	33
110	0x1d	29
111	0xbf	-65
112	0x46	70
113	0x2c	44
114	0xf0	-16
115	0x27	39
116	0x04	4
117	0x03	3
118	0x27	39
119	0x1d	29
120	0x40	64
121	0xcd	-51
122	0x23	35
123	0x3d	61
124	0xc1	-63
125	0x32	50
126	0x4e	78
127	0xbe	-66
128	0x29	41
129	0x36	54
130	0xe1	-31
131	0x46	70
132	0x36	54
133	0xaf	-81
134	0x20	32
135	0x1f	31
136	0xc3	-61
137	0x48	72
138	0x35	53
139	0xd6	-42
140	0x35	53
141	0x28	40
142	0xbd	-67
143	0x35	53
144	0x1f	31
145	0xc4	-60
146	0x05	5
147	0x06	6
148	0xda	-38
149	0x07	7
150	0x07	7
151	0x0a	10
152	0xee	-18
153	0xe0	-32
154	0x2a	42
155	0x18	24
156	0xe9	-23
157	0x17	23
158	0xed	-19
159	0x03	3
160	0xf9	-7
161	0x03	3
162	0xda	-38
163	0x29	41
164	0xce	-50
165	0x07	7
166	0x0a	10
167	0xeb	-21
168	0xca	-54
169	0x26	38
170	0xf3	-13
171	0xf2	-14
172	0x20	32
173	0xea	-22
174	0xcc	-52
175	0x0d	13
176	0xe8	-24
177	0x07	7
178	0x31	49
179	0xe2	-30
180	0xf8	-8
181	0x00	0
182	0xfe	-2
183	0x0c	12
184	0xfe	-2
185	0x27	39
186	0xf3	-13
187	0x1f	31
188	0x22	34
189	0xd3	-45
190	0x1c	28
191	0xf8	-8
192	0xd4	-44
193	0x2d	45
194	0xff	-1
195	0xcc	-52
196	0x04	4
197	0x2c	44
198	0xe1	-31
199	0xec	-20
200	0x1e	30
201	0xcd	-51
202	0x32	50
203	0x15	21
204	0xe2	-30
205	0xe8	-24
206	0xfe	-2
207	0x06	6
208	0xf7	-9
209	0x2b	43
210	0xf9	-7
211	0xf8	-8
212	0x2d	45
213	0x16	22
214	0x07	7
215	0xf2	-14
216	0x47	71
217	0xc1	-63
218	0x32	50
219	0x1e	30
220	0xf3	-13
221	0x22	34
222	0x2f	47
223	0x92	-110
224	0x47	71
225	0x1e	30
226	0xcc	-52
227	0x31	49
228	0x39	57
229	0x81	-127
230	0x50	80
231	0x29	41
232	0xb7	-73
233	0x35	53
234	0x2f	47
235	0xc8	-56
236	0x32	50
237	0x06	6
238	0xca	-54
239	0x15	21
240	0x40	64
241	0xf5	-11
242	0x23	35
243	0x27	39
244	0xbd	-67
245	0xc9	-55
246	0x34	52
247	0xc2	-62
248	0x2c	44
249	0x56	86
250	0xa2	-94
251	0xb5	-75
252	0x3e	62
253	0x99	-103
254	0x09	9
255	0x70	112

lenet/sequential/conv2d/Conv2D i1 [6, 5, 5, 1]
0	0xb7	-73
1	0xdf	-33
2	0x19	25
3	0x1a	26
4	0x2d	45
5	0xe4	-28
6	0x3e	62
7	0x52	82
8	0x76	118
9	0x55	85
10	0x03	3
11	0x37	55
12	0x7f	127
13	0x75	117
14	0x4c	76
15	0xbe	-66
16	0x38	56
17	0x63	99
18	0x27	39
19	0x00	0
20	0x94	-108
21	0xdf	-33
22	0xbd	-67
23	0xa0	-96
24	0x93	-109
25	0xf2	-14
26	0xe3	-29
27	0xd5	-43
28	0xe2	-30
29	0x15	21
30	0xad	-83
31	0xab	-85
32	0x82	-126
33	0xca	-54
34	0xf8	-8
35	0xb9	-71
36	0x81	-127
37	0xc9	-55
38	0xd1	-47
39	0x04	4
40	0xc6	-58
41	0xb4	-76
42	0xd9	-39
43	0xf2	-14
44	0x44	68
45	0xf6	-10
46	0xe7	-25
47	0x23	35
48	0x4e	78
49	0x6b	107
50	0xc0	-64
51	0xd3	-45
52	0xd2	-46
53	0xf2	-14
54	0x08	8
55	0xea	-22
56	0x19	25
57	0x34	52
58	0x52	82
59	0x1f	31
60	0x24	36
61	0x44	68
62	0x7f	127
63	0x31	49
64	0x18	24
65	0x0f	15
66	0x45	69
67	0x37	55
68	0x1b	27
69	0xf9	-7
70	0x18	24
71	0x5a	90
72	0x2a	42
73	0xfb	-5
74	0xd7	-41
75	0xf8	-8
76	0x56	86
77	0x4e	78
78	0x57	87
79	0x37	55
80	0x44	68
81	0x67	103
82	0x66	102
83	0x3d	61
84	0x31	49
85	0x2b	43
86	0x68	104
87	0x3c	60
88	0x46	70
89	0xf7	-9
90	0xfb	-5
91	0x1b	27
92	0x00	0
93	0x17	23
94	0xc9	-55
95	0xaf	-81
96	0xb3	-77
97	0xb1	-79
98	0xb5	-75
99	0x81	-127
100	0xde	-34
101	0xe5	-27
102	0xb6	-74
103	0xb6	-74
104	0xd0	-48
105	0xdd	-35
106	0xa5	-91
107	0x81	-127
108	0xc1	-63
109	0xda	-38
110	0xe4	-28
111	0xb1	-79
112	0xb8	-72
113	0xdc	-36
114	0x08	8
115	0x01	1
116	0xd8	-40
117	0xe8	-24
118	0xf2	-14
119	0x3a	58
120	0x02	2
121	0x03	3
122	0x2b	43
123	0x32	50
124	0x73	115
125	0xcc	-52
126	0xb1	-79
127	0xac	-84
128	0xb8	-72
129	0xc7	-57
130	0xea	-22
131	0xeb	-21
132	0xf9	-7
133	0x09	9
134	0xf2	-14
135	0x35	53
136	0x29	41
137	0x25	37
138	0x25	37
139	0x2b	43
140	0x69	105
141	0x7f	127
142	0x6b	107
143	0x5c	92
144	0x3e	62
145	0x3b	59
146	0x49	73
147	0x1c	28
148	0x33	51
149	0x1f	31
