outputs/FI_files/conv3/lenet5_conv3_weight_tensor.npy (npy, 48128 bytes, 1 tensors)

array i1 [120, 5, 5, 16]
0	0xf6	-10
1	0x02	2
2	0xee	-18
3	0xf7	-9
4	0xec	-20
5	0xee	-18
6	0xfa	-6
7	0xfc	-4
8	0x0c	12
9	0xe1	-31
10	0xfd	-3
11	0xff	-1
12	0xfc	-4
13	0xb0	-80
14	0x1d	29
15	0xe9	-23
16	0x0a	10
17	0x08	8
18	0xeb	-21
19	0x17	23
20	0x05	5
21	0xe1	-31
22	0x0a	10
23	0x03	3
24	0xed	-19
25	0xe5	-27
26	0xe9	-23
27	0xeb	-21
28	0x12	18
29	0xab	-85
30	0x09	9
31	0xac	-84
32	0xf9	-7
33	0xfc	-4
34	0x0c	12
35	0xf7	-9
36	0xe9	-23
37	0xc6	-58
38	0xf0	-16
39	0xe9	-23
40	0xf7	-9
41	0xd5	-43
42	0x04	4
43	0xd7	-41
44	0xfa	-6
45	0x11	17
46	0x01	1
47	0xfe	-2
48	0xff	-1
49	0x08	8
50	0x0b	11
51	0x00	0
52	0xfb	-5
53	0x10	16
54	0xef	-17
55	0xf6	-10
56	0x15	21
57	0xdb	-37
58	0x00	0
59	0x09	9
60	0xff	-1
61	0x22	34
62	0x15	21
63	0x2b	43
64	0xff	-1
65	0xf5	-11
66	0x0a	10
67	0x05	5
68	0xfd	-3
69	0x15	21
70	0xf3	-13
71	0x06	6
72	0x0a	10
73	0xf6	-10
74	0x0b	11
75	0x09	9
76	0x10	16
77	0x14	20
78	0x02	2
79	0x20	32
80	0xef	-17
81	0xf9	-7
82	0xff	-1
83	0x09	9
84	0x0e	14
85	0xe8	-24
86	0x01	1
87	0x04	4
88	0x02	2
89	0xce	-50
90	0xfa	-6
91	0x01	1
92	0xf1	-15
93	0x01	1
94	0xea	-22
95	0xd2	-46
96	0xf2	-14
97	0x0b	11
98	0x01	1
99	0xf5	-11
100	0xf0	-16
101	0x09	9
102	0x00	0
103	0x0d	13
104	0x14	20
105	0x35	53
106	0xfc	-4
107	0x23	35
108	0x11	17
109	0x3c	60
110	0xb0	-80
111	0x0c	12
112	0x0e	14
113	0xfe	-2
114	0x09	9
115	0x16	22
116	0x11	17
117	0x14	20
118	0xf6	-10
119	0x09	9
120	0xfd	-3
121	0x27	39
122	0x13	19
123	0xde	-34
124	0x16	22
125	0x81	-127
126	0x2b	43
127	0x2f	47
128	0x02	2
129	0x03	3
130	0x13	19
131	0xe8	-24
132	0xf9	-7
133	0xe7	-25
134	0x0c	12
135	0x07	7
136	0x09	9
137	0xd3	-45
138	0x07	7
139	0xf9	-7
140	0x09	9
141	0x22	34
142	0x23	35
143	0x58	88
144	0xeb	-21
145	0x13	19
146	0xeb	-21
147	0xe9	-23
148	0x0d	13
149	0x29	41
150	0x09	9
151	0xf0	-16
152	0xf6	-10
153	0x2e	46
154	0x19	25
155	0x3e	62
156	0xf6	-10
157	0x2e	46
158	0xde	-34
159	0x2d	45
160	0xfe	-2
161	0x11	17
162	0x15	21
163	0xfb	-5
164	0xec	-20
165	0x26	38
166	0x15	21
167	0x18	24
168	0xfa	-6
169	0x2a	42
170	0x02	2
171	0x48	72
172	0x11	17
173	0x47	71
174	0x9e	-98
175	0x1e	30
176	0x18	24
177	0x0e	14
178	0x0b	11
179	0x15	21
180	0xfc	-4
181	0x48	72
182	0xeb	-21
183	0x06	6
184	0xf6	-10
185	0x48	72
186	0xf4	-12
187	0xec	-20
188	0xfd	-3
189	0xd4	-44
190	0xd0	-48
191	0x00	0
192	0xea	-22
193	0xee	-18
194	0x0e	14
195	0x10	16
196	0xea	-22
197	0xb7	-73
198	0x15	21
199	0x05	5
200	0x00	0
201	0xba	-70
202	0x01	1
203	0x97	-105
204	0x06	6
205	0x85	-123
206	0x56	86
207	0xb3	-77
208	0xfa	-6
209	0xe9	-23
210	0xed	-19
211	0x07	7
212	0x10	16
213	0xa0	-96
214	0x04	4
215	0x09	9
216	0x12	18
217	0xcb	-53
218	0xf1	-15
219	0xc4	-60
220	0x15	21
221	0xe6	-26
222	0x1b	27
223	0xd0	-48
224	0xeb	-21
225	0x0c	12
226	0x06	6
227	0xf9	-7
228	0xf4	-12
229	0x06	6
230	0xfa	-6
231	0x0b	11
232	0xee	-18
233	0x00	0
234	0x00	0
235	0x07	7
236	0x13	19
237	0x0b	11
238	0x15	21
239	0x2a	42
240	0x07	7
241	0xeb	-21
242	0x0e	14
243	0xe9	-23
244	0x07	7
245	0x24	36
246	0xf2	-14
247	0x0f	15
248	0x0d	13
249	0x22	34
250	0x05	5
251	0x33	51
252	0xf8	-8
253	0x42	66
254	0xd4	-44
255	0xf7	-9
