outputs/FI_files/conv2/lenet5_conv2_weight_tensor.npy (npy, 2528 bytes, 1 tensors)

array i1 [16, 5, 5, 6]
00000000: f305 dcb9 071b d795 0b0a a200 1a13 a59d
00000010: cea5 fdb7 f399 10e6 e9bf 9cf5 97bd 01ca
00000020: a2ae a9ee bbbe e4dc c612 09eb 8ff3 92ae
00000030: ecf6 17b1 02ff c6f0 9fd9 00a2 cecb 1320
00000040: e4b0 d9b0 e3c0 a6a3 a0f4 fab1 bc9f d023
00000050: d7a4 8edd d4a7 01fc d4ae e092 e0a5 921e
00000060: dcc4 92ac 86d0 b6fa 9cf4 bbb4 81a6 11f6
00000070: 90c6 dda5 bfaa 8224 8fee 0b94 aacb eeb7
00000080: e6e2 caa1 94b9 94a8 90f3 07ef 19aa e40b
00000090: e01b 8f0c b196 98e5 db20 0f00 b69a 2519
000000a0: fed8 85ae a813 e9ea 8119 de17 a6f4 97f2
000000b0: 9e12 f4fd b0e7 920f 19b9 b7f2 d9af b7ae
000000c0: b8bb 93a9 94f9 c2a6 be0a 00c1 9eca bfb2
000000d0: 10a1 ad97 df1d 128f e6e0 11b1 05cf c19f
000000e0: aae7 ddc5 db8d a9f6 c1e6 c7d3 f69f f10a
000000f0: 889f d124 8502 1917 ab15 9b94 d1a7 e5cc
-13 5 -36 -71 7 27 -41 -107
11 10 -94 0 26 19 -91 -99
-50 -91 -3 -73 -13 -103 16 -26
-23 -65 -100 -11 -105 -67 1 -54
-94 -82 -87 -18 -69 -66 -28 -36
-58 18 9 -21 -113 -13 -110 -82
-20 -10 23 -79 2 -1 -58 -16
-97 -39 0 -94 -50 -53 19 32
-28 -80 -39 -80 -29 -64 -90 -93
-96 -12 -6 -79 -68 -97 -48 35
-41 -92 -114 -35 -44 -89 1 -4
-44 -82 -32 -110 -32 -91 -110 30
-36 -60 -110 -84 -122 -48 -74 -6
-100 -12 -69 -76 -127 -90 17 -10
-112 -58 -35 -91 -65 -86 -126 36
-113 -18 11 -108 -86 -53 -18 -73
-26 -30 -54 -95 -108 -71 -108 -88
-112 -13 7 -17 25 -86 -28 11
-32 27 -113 12 -79 -106 -104 -27
-37 32 15 0 -74 -102 37 25
-2 -40 -123 -82 -88 19 -23 -22
-127 25 -34 23 -90 -12 -105 -14
-98 18 -12 -3 -80 -25 -110 15
25 -71 -73 -14 -39 -81 -73 -82
-72 -69 -109 -87 -108 -7 -62 -90
-66 10 0 -63 -98 -54 -65 -78
16 -95 -83 -105 -33 29 18 -113
-26 -32 17 -79 5 -49 -63 -97
-86 -25 -35 -59 -37 -115 -87 -10
-63 -26 -57 -45 -10 -97 -15 10
-120 -97 -47 36 -123 2 25 23
-85 21 -101 -108 -47 -89 -27 -52
